…
Namespace(batch_size=1024, dataset='mnist', each_div=800, idc_layer='all', idc_n=6, iterations=30, k_kmnc=10, k_nc=0.75, k_tknc=1, model='leNet_1', num_div=1, ood_dataset='SUN', path='/media/data1/DeepSuite/', pool_iter=1000, pool_type='test', sa_layer=-1, sa_n=1000, save_path='/media/data1/DeepSuite', wrong_rate=0.1)
load leNet_1...
/media/data1/DeepSuite/trained_models/mnist/leNet_1.h5
Model: "sequential_1"
_________________________________________________________________
Layer (type)                 Output Shape              Param #   
=================================================================
activation1 (Conv2D)         (None, 28, 28, 4)         104       
_________________________________________________________________
pool1 (MaxPooling2D)         (None, 14, 14, 4)         0         
_________________________________________________________________
activation2 (Conv2D)         (None, 14, 14, 12)        1212      
_________________________________________________________________
pool2 (MaxPooling2D)         (None, 7, 7, 12)          0         
_________________________________________________________________
flatten (Flatten)            (None, 588)               0         
_________________________________________________________________
dense (Dense)                (None, 10)                5890      
_________________________________________________________________
activation3 (Activation)     (None, 10)                0         
=================================================================
Total params: 7,206
Trainable params: 7,206
Non-trainable params: 0
_________________________________________________________________
None
<class 'numpy.ndarray'>
10000
key:  7  D[d]:  1028
key:  2  D[d]:  1032
key:  1  D[d]:  1135
key:  0  D[d]:  980
key:  4  D[d]:  982
key:  9  D[d]:  1009
key:  5  D[d]:  892
key:  6  D[d]:  958
…
Namespace(batch_size=1024, dataset='mnist', each_div=800, idc_layer='all', idc_n=6, iterations=30, k_kmnc=10, k_nc=0.75, k_tknc=1, model='leNet_4', num_div=1, ood_dataset='SUN', path='/media/data1/DeepSuite/', pool_iter=1000, pool_type='test', sa_layer=-1, sa_n=1000, save_path='/media/data1/DeepSuite', wrong_rate=0.1)
load leNet_4...
/media/data1/DeepSuite/trained_models/mnist/leNet_4.h5
Model: "sequential_1"
_________________________________________________________________
Layer (type)                 Output Shape              Param #   
=================================================================
activation1 (Conv2D)         (None, 28, 28, 6)         156       
_________________________________________________________________
pool1 (MaxPooling2D)         (None, 14, 14, 6)         0         
_________________________________________________________________
activation2 (Conv2D)         (None, 14, 14, 16)        2416      
_________________________________________________________________
pool2 (MaxPooling2D)         (None, 7, 7, 16)          0         
_________________________________________________________________
flatten (Flatten)            (None, 784)               0         
_________________________________________________________________
fc (Dense)                   (None, 84)                65940     
_________________________________________________________________
dense (Dense)                (None, 10)                850       
_________________________________________________________________
predictions (Activation)     (None, 10)                0         
=================================================================
Total params: 69,362
Trainable params: 69,362
Non-trainable params: 0
_________________________________________________________________
None
<class 'numpy.ndarray'>
10000
key:  7  D[d]:  1028
key:  2  D[d]:  1032
key:  1  D[d]:  1135
key:  0  D[d]:  980
key:  4  D[d]:  982
key:  9  D[d]:  1009
key:  5  D[d]:  892
key:  6  D[d]:  958
…
